lstm/cpu_model.pth (torch, 204205 bytes, 10 tensors)

lstm.weight_ih_l0 f4 [256, 1]
000000 ee 5c b4 3d 60 ec f3 bd b8 4d 9d 3c 20 25 19 3d
       0.088067874 -0.11910319 0.019202098 0.03738892
000010 f6 c2 f3 bd 7e 62 bf 3d d8 7e cf bd 20 ac 58 3d
       -0.1190242 0.09344958 -0.101316154 0.052898526
000020 72 45 e5 bd 38 07 28 bd 0a 67 d2 3d e0 90 9a bd
       -0.11194886 -0.04102251 0.102735594 -0.07547164
000030 d6 a8 db bd a6 f6 c9 bd c4 ec 48 3d b2 4c 88 bd
       -0.10725562 -0.098614976 0.049053922 -0.066552535
000040 6c 6a 66 3d d8 cf 14 3d 90 b2 72 bd b0 c0 af bd
       0.056253836 0.036331028 -0.05925232 -0.08581674
000050 b8 bd 19 bd 20 b0 e1 3b 26 d2 94 bd b2 e3 9b bd
       -0.037534446 0.006887451 -0.07266645 -0.07611789
000060 ae 98 f1 3d 66 df 96 bd 70 32 63 bd 6a f3 b7 bd
       0.117966995 -0.073668286 -0.055468023 -0.089819744
000070 38 9e 60 3d 12 36 dc 3d f0 41 c4 bc a6 4d c7 3d
       0.05483839 0.107525006 -0.023957223 0.09731607
000080 20 43 26 3d 48 e5 6d 3d 0c 73 be 3d 90 df 41 3c
       0.04059136 0.058079988 0.09299287 0.011833087
000090 58 92 bc 3d 48 3f c9 bc 66 00 a2 3d 72 c4 bd bd
       0.092076 -0.024566308 0.07910232 -0.092659846
0000a0 ca f0 e4 3d b4 13 94 bd c0 2d b9 bc 70 61 b3 3d
       0.11178739 -0.072303206 -0.022604823 0.08758819
0000b0 d0 25 ce bc a4 a1 e8 3d 30 3f f9 3c 3c af f4 bd
       -0.025164515 0.113589555 0.030425638 -0.11947486
0000c0 80 c1 90 3a 90 ab 22 3c e4 0c 9c 3d 20 4d d1 bc
       0.0011043996 0.009928599 0.07619646 -0.025549471
0000d0 80 85 34 3b 84 8c 2b bd 90 43 ac bc 00 12 40 3d
       0.0027545393 -0.041882053 -0.02102831 0.046892166
0000e0 18 52 df bc 8a 0d d4 bd 3e c1 fe 3d 90 7f d3 bd
       -0.027260825 -0.10354145 0.12439202 -0.10327065
0000f0 70 34 dc 3d 20 43 1d 3c a8 11 9f bd 56 75 ce bd
       0.10752189 0.009598523 -0.077670395 -0.10080974
000100 6c ab 90 bd 70 a1 d8 3d 74 06 51 3d 50 7b 2e 3c
       -0.07063946 0.10577667 0.051031545 0.010649517
000110 a8 52 6e bd 2a 33 f5 3d 7c f7 53 3d 1a 59 a6 3d
       -0.058184296 0.119726494 0.05174969 0.081224635
000120 c6 2c e2 3d 40 0a 9b bd 50 c5 2a 3d 7c f2 ba 3d
       0.11043696 -0.075703144 0.041692078 0.091282815
000130 04 06 3e 3d 7e d4 f7 3d 38 f6 cd bd 80 6e 19 3b
       0.046392456 0.121010765 -0.10056728 0.002341181
000140 78 ef f3 3d cc 64 80 bd d8 9e 8f bc 02 60 c6 3d
       0.119109094 -0.062692255 -0.017531797 0.09686281
000150 a8 6e df bc be d8 ce bd 28 d9 48 3d 84 fa 0d 3d
       -0.027274445 -0.10099934 0.04903522 0.03466274
000160 94 29 e3 3d 8a e5 8e bd ce 72 86 3d 44 3a 1a bd
       0.11091915 -0.06977375 0.06564866 -0.037653223
000170 80 6f ef bd a0 91 cc bc 60 d8 24 bc f4 5d 57 3d
       -0.11691189 -0.024971783 -0.010061353 0.052579835
000180 8e c4 e1 bd 90 9e 32 3d 40 c4 6b bd 3e cb f1 bd
       -0.11023818 0.04360825 -0.057560205 -0.118063435
000190 c0 64 31 3b a6 a4 90 3d 5e 12 cb 3d d8 02 f3 bc
       0.0027068108 0.07062654 0.09915613 -0.029664442
0001a0 b6 71 d0 3d 58 d5 8e bd 8c 48 c6 bd 00 01 a9 bc
       0.10177939 -0.06974286 -0.09681806 -0.02063036
0001b0 54 8d de 3d d0 c7 10 bc 50 85 74 bd e8 13 e1 bc
       0.108668 -0.0088367015 -0.05969745 -0.027475312
0001c0 20 8a ec 3b 86 f2 d6 bd a4 d7 8f 3d d8 40 e4 3d
       0.007218614 -0.104954764 0.07023552 0.111451805
0001d0 72 d1 b2 3d cc 40 aa bd c2 e3 c2 3d e0 7b 3e 3d
       0.08731355 -0.0831314 0.095160976 0.046504855
0001e0 40 b9 2a bd a0 c8 e0 3b f8 f9 ce bd 88 01 39 bd
       -0.041680574 0.006859854 -0.101062715 -0.045167476
0001f0 b8 31 43 3d d0 bc f3 3c 30 88 ed bc 14 a8 3f bd
       0.047654837 0.029753119 -0.028995603 -0.04679115
000200 02 07 a6 bd 6c e4 43 bd 98 9e 7e bd f4 39 3d 3d
       -0.081068054 -0.047825262 -0.062162966 0.046197847
000210 10 4c 9d bd 10 5c a6 3d f0 8e c2 bc e0 a8 9b 3b
       -0.076805234 0.08123028 -0.023749799 0.004750356
000220 b4 b6 21 3d e4 e3 c8 3d 6a 0e 8c 3d ec 2d aa bd
       0.03948088 0.09809092 0.06838687 -0.0830954
000230 6e 9b bd bd b6 82 90 3d b8 c3 b9 3d 18 3d 95 3c
       -0.092581615 0.07056181 0.090705335 0.018217608
000240 42 27 af 3d 40 6b 7d bb 00 de 4f 3c 90 e8 3e bd
       0.0855241 -0.0038668662 0.012687206 -0.046608508
000250 be 79 98 bd 48 6a f0 3c 58 b8 b7 bd 50 32 97 3c
       -0.074450955 0.029347554 -0.08970708 0.018456608
000260 fc 21 43 3d 6e 70 c1 bd 7e 4e 96 3d 02 f6 89 bd
       0.047639832 -0.094452724 0.0733919 -0.067363754
000270 94 4a 57 bd 5c 18 d3 bd 16 e6 ee bd 90 c5 2e bd
       -0.052561358 -0.103073806 -0.11664979 -0.04266888
000280 58 97 b2 bd b6 a1 8a 3d 70 eb 95 bd 02 67 a2 bd
       -0.08720273 0.06769125 -0.07320297 -0.079298034
000290 a4 6a 77 bd 6c ed 0e bd a0 15 c0 bd c8 5c be 3d
       -0.060404435 -0.034894392 -0.09379125 0.0929504
0002a0 84 0f 13 bd 9a 9a cb 3d 28 c6 df 3c 34 68 e5 3d
       -0.03590347 0.09941597 0.027316168 0.11201516
0002b0 b0 1a 02 3c e0 b8 20 bd 54 89 9a 3d 3e 38 bd 3d
       0.007940933 -0.03923881 0.075457245 0.09239243
0002c0 50 2d 61 bc 80 71 ca 3c e0 0a 4f bd 70 86 cf 3c
       -0.0137437135 0.024712324 -0.05054748 0.02533266
0002d0 56 15 83 3d 40 f4 f7 bc 9c 32 72 bd 80 1d ac 3c
       0.06400554 -0.030267835 -0.059130296 0.02101016
0002e0 5a 76 ab bd d8 64 03 bd 58 e1 db bd 78 7c 4e 3d
       -0.08372183 -0.032078594 -0.1073634 0.05041167
0002f0 3c a0 65 3d ec e7 e3 bd 16 da a5 bd 76 08 e9 3d
       0.056061015 -0.1112822 -0.08098237 0.11378567
000300 12 41 e4 3d f8 9f ff bc f0 de 6e 3c 26 18 bc bd
       0.11145224 -0.031204209 0.01457952 -0.091842934
000310 06 20 e2 bd f0 78 42 3c cc 61 dc 3d a0 02 d6 bb
       -0.11041264 0.011869654 0.10760841 -0.0065310746
000320 f8 81 ee 3d 24 9c 63 bd 9e 2f cc bd 44 e7 22 bd
       0.11645883 -0.05556883 -0.0997002 -0.039771333
000330 b0 58 c9 bc 04 f6 91 bd a4 0b 9c 3d 70 e9 31 3c
       -0.024578422 -0.07127002 0.07619408 0.0108588785
000340 66 ff c0 bd f4 c1 a4 bd f0 bf ef 3d 24 4c 0a bd
       -0.094237134 -0.08044806 0.11706531 -0.03376402
000350 c0 52 3a bb f8 6e f5 3d 34 d4 41 bd e2 dc e5 bd
       -0.002843067 0.11984056 -0.047321513 -0.11223771
000360 ca 91 b9 bd 2c a4 4b bd a0 53 d8 bd 54 33 d8 bd
       -0.0906101 -0.049717113 -0.10562825 -0.10556665
000370 b8 87 c0 3d 40 a7 66 3d 10 c1 3c 3d 7a e6 92 3d
       0.09400886 0.056311846 0.046082556 0.07172866
000380 90 34 f5 3c e0 62 3e bd 28 a9 c6 3d 8e 1a 8f 3d
       0.02993229 -0.046481013 0.09700233 0.06987487
000390 8a 5a 91 3d 64 07 52 bd de 41 df 3d 32 a7 8c bd
       0.07097347 -0.05127658 0.10901235 -0.068678275
0003a0 28 26 b9 bc a0 e0 09 3d 88 ae 71 3d 66 74 bf bd
       -0.022601202 0.033661485 0.059004337 -0.09348373
0003b0 20 35 0b 3c 58 ab d4 bc e0 e5 6d 3c f8 7b a8 3c
       0.008496553 -0.02596061 0.0145201385 0.020566925
0003c0 42 b3 f1 3d 10 7d 38 bc c0 f6 74 3b c0 44 20 3d
       0.11801769 -0.011260286 0.003737852 0.039128065
0003d0 d6 ec b4 3d f8 81 fa bc a8 92 81 bd e0 42 40 3c
       0.08834235 -0.030579552 -0.063268006 0.011734694
0003e0 aa 5d e8 bd e0 81 ec 3b c0 8c 4f 3c 38 63 f5 3c
       -0.1134599 0.0072176307 0.012667835 0.029954538
0003f0 76 9e 99 bd 00 23 03 bc e0 30 d3 bb d6 67 9b bd
       -0.07500927 -0.00800395 -0.0064450353 -0.075881645

lstm.weight_hh_l0 f4 [256, 64]
000000 80 e6 8a 3a b4 ad 89 bd 0c c8 64 3d e2 bf b9 3d
       0.0010597259 -0.06722584 0.055854842 0.09069802
000010 50 3b fe 3d 60 93 a1 3c 18 ac c3 bc 64 d7 5e 3d
       0.12413657 0.019723594 -0.023885772 0.05440463
000020 a2 56 a3 bd 64 0e b1 bd 72 35 cc bd d0 c7 94 bd
       -0.07975508 -0.08645323 -0.099711314 -0.07264674
000030 56 6a 8f 3d 6a a8 99 3d 86 86 f4 bd 4c 07 ee bd
       0.07002704 0.075028256 -0.11939721 -0.116224855
000040 04 e6 d6 bd e4 ea 3e bd 18 ff de bc b8 6c 88 bd
       -0.10493091 -0.046610728 -0.027221248 -0.066613615
000050 60 8d a4 3c 00 52 b3 bb f4 34 7b bd d4 6e e0 3d
       0.020086944 -0.0054724216 -0.061329797 0.10958639
000060 fc a6 12 3d 04 39 ca bd 24 f1 7d bd 42 12 f0 bd
       0.03580378 -0.09874156 -0.061997548 -0.117222324
000070 00 ea 8b b9 b8 ce ae 3c 28 53 ca bc 74 51 93 3d
       -0.0002668649 0.021338806 -0.024697855 0.0719327
000080 9a b9 c8 bd 88 f5 cf 3d 70 e3 a1 bc 28 fe cf bd
       -0.09801026 0.10154253 -0.019761771 -0.10155898
000090 72 6f b0 3d 1a 63 c3 bd 0a 5a 88 3d b4 3e 47 3d
       0.086150065 -0.095403865 0.066577986 0.048643783
0000a0 50 00 b2 bc 08 48 96 bc 70 ac 05 bd e6 b6 9e 3d
       -0.021728665 -0.018344894 -0.032635152 0.07749729
0000b0 f8 ba a5 3d a6 96 cd bd b8 31 8e bd 9c 65 bd bd
       0.08092302 -0.100384995 -0.06943077 -0.09247896
0000c0 30 ec 76 bc 32 6f 95 3d b0 87 75 bd 30 18 41 3d
       -0.01507096 0.072965994 -0.059943855 0.047142208
0000d0 8a 05 d1 3d 0c b4 3c bd a8 3d b0 bd b8 47 f4 bc
       0.102061346 -0.046070144 -0.0860551 -0.029819354
0000e0 88 64 69 3d 4c 85 e3 bd 0e 1e de bd de 52 b4 3d
       0.05698064 -0.11109409 -0.10845576 0.08804868
0000f0 a0 2a ab 3d c8 65 92 3c 20 f5 a3 bc 80 74 00 3b
       0.083577394 0.017870799 -0.020014346 0.001960069
000100 00 e3 5e 3c 38 45 e9 bd ec 80 61 3d bc a4 5f bd
       0.013603926 -0.113901556 0.05505459 -0.054600462
000110 00 8c 92 bc e8 81 b2 3c 96 ae ba bd 18 34 c3 3d
       -0.017889023 0.02179046 -0.09115331 0.095314205
000120 ce fa 9b bd 0a b4 e6 3d 20 8f 86 3b b4 20 c6 bd
       -0.076161966 0.112648085 0.0041064173 -0.096742064
000130 06 ba bf 3d 64 8e 45 bd 22 44 d3 3d de 19 a8 3d
       0.09361653 -0.048231497 0.1031573 0.08208059
000140 d4 25 bb 3d 4e 03 b7 bd e8 27 cb bc a8 26 b5 3d
       0.091380745 -0.08936177 -0.024799302 0.08845264
000150 f6 6c 81 3d f0 5d fb bd d4 7e cd 3d 14 a5 41 3d
       0.06319611 -0.122737765 0.10033956 0.04727657
000160 30 27 40 bc d8 30 30 3d c4 07 2d 3d 10 25 50 bc
       -0.011728093 0.04301533 0.042243734 -0.012704149
000170 a4 77 0f 3d e4 75 94 3d 60 06 aa 3d e4 a0 7c 3d
       0.035026208 0.07249048 0.08301997 0.061676875
000180 dc 14 ee bd 08 e1 f2 3c b4 44 13 bd 90 14 98 bd
       -0.11625072 0.029648319 -0.035954192 -0.07425797
000190 66 6d cb 3d 36 1f 81 bd 90 33 54 bc 9a a3 90 bd
       0.099329755 -0.06304781 -0.012951747 -0.070624545
0001a0 20 a7 73 bd 3c d6 73 3d ea dc f8 bd dc 3d be bd
       -0.059485555 0.05953048 -0.12151511 -0.092891425
0001b0 10 fb b3 bd c0 d1 cb 3d c8 3e 64 3d 34 a7 f8 3d
       -0.08788121 0.09952116 0.055723935 0.121412665
0001c0 30 b2 f3 bd 5e cd 90 3d de ff 91 3d aa a5 bf 3d
       -0.11899221 0.07070421 0.07128881 0.0935777
0001d0 06 eb b2 bd 78 87 ea 3c 78 2e cb 3c 68 8a ed bc
       -0.087362334 0.02862905 0.024802431 -0.028996661
0001e0 4c c2 69 bd c0 c7 bb 3b 00 3a 76 bd 5c 95 0f 3d
       -0.05707006 0.005730599 -0.060113907 0.03505455
0001f0 1c 87 be bd de a0 cc bd 60 b1 53 3d 4e 20 ec 3d
       -0.09303114 -0.099916205 0.05168283 0.11529599
000200 50 e8 bc bd 1e c4 e7 bd 9a fb 9b bd f4 10 b9 bd
       -0.092239976 -0.11316703 -0.076163486 -0.09036437
000210 ea 5e b6 3d 8c f4 6e bd 00 3c ef 3d 46 9b c3 3d
       0.08904822 -0.058338687 0.11681366 0.095511004
000220 d0 a7 5a bd c8 7f ac bd 20 8e b3 bc 60 01 c2 3c
       -0.053382695 -0.0842281 -0.021918356 0.023682296
000230 f0 23 5d 3d 84 cb 5d bd 50 ca b3 3c 92 09 a3 3d
       0.05398935 -0.054149166 0.021947056 0.0796081
000240 4e a8 eb bd 34 ef 22 bd 74 34 db bd bc 83 c4 3d
       -0.11506711 -0.039778903 -0.10703364 0.09595439
000250 54 96 69 3d b4 92 fa 3d 38 a6 e9 3d a8 75 f3 3c
       0.05702813 0.12235013 0.11408657 0.029719189
000260 78 26 c0 bd e4 77 81 3d 7c 0f 26 bd 10 c9 e1 3d
       -0.09382337 0.063216954 -0.04054211 0.11024678
000270 00 44 25 39 e2 52 87 bd b4 40 1a bd 7c 0a 02 3d
       0.00015760958 -0.066076055 -0.037659362 0.03174828
000280 10 2c 81 bd 88 62 94 bc 60 0e db 3d 8c 13 29 bd
       -0.063072324 -0.01811339 0.10696101 -0.041278407
000290 44 0a 1e 3d ea 5b 8c 3d 86 b4 cb 3d a6 c9 e5 3d
       0.03858401 0.06853469 0.099465415 0.11220102
0002a0 fc f6 b3 3d 40 48 ef 3d 06 99 d7 bd 88 00 db 3c
       0.08787343 0.116837025 -0.10527234 0.026733652
0002b0 bc 87 f3 3d 58 fe f1 3c 04 11 5a bd 68 5a c3 3c
       0.11891124 0.029540226 -0.053238884 0.02384682
0002c0 bc ed ac 3d 28 56 e6 bc d0 80 85 3c ec 4c 80 3d
       0.08443782 -0.028117254 0.016296774 0.06264672
0002d0 b8 f2 8c 3d 1c 7f 31 3d a8 cf 30 3d e8 72 ca 3c
       0.068822324 0.04333411 0.043166786 0.024712995
0002e0 30 a5 af 3d b0 c0 e8 bd 00 80 2b bc 08 68 3a 3d
       0.08576429 -0.11364877 -0.010467529 0.04550937
0002f0 d8 6e da bd f6 c4 c1 3d 44 88 31 bd d0 aa 25 bc
       -0.10665673 0.094613954 -0.043342844 -0.010111526
000300 60 d4 b1 3c 04 d6 6c 3d e0 e5 c2 bd 00 f2 14 bd
       0.021707714 0.05782129 -0.095165014 -0.0363636
000310 00 d3 f9 bc 98 cd ec bd 68 c0 2e 3d 80 c2 b3 3b
       -0.03049612 -0.115626514 0.04266396 0.0054858327
000320 1c 8f cf bd 78 7f b8 3c 56 cc a0 3d 2a c6 a2 3d
       -0.10134718 0.02252172 0.07851474 0.07947953
000330 58 c5 b4 bd d6 53 be 3d b8 fd eb bc 00 ba fa 3c
       -0.08826703 0.09293334 -0.028807506 0.03060627
000340 70 bc 61 3c dc 54 f5 3d c0 b4 46 bd e4 c4 91 bd
       0.013777837 0.11979076 -0.04851222 -0.07117632
000350 d0 43 91 bd 60 8b ea bc f4 b5 b0 3d 16 4f a8 3d
       -0.07093012 -0.028630912 0.08628455 0.082182094
000360 da 3a 93 3d 7c 3a 58 bd 42 5f b4 bd 58 91 b9 bc
       0.071889594 -0.05279015 -0.088072315 -0.022652313
000370 9e 70 a9 3d f4 01 56 3d 88 c1 eb 3d b8 cc e1 bd
       0.08273433 0.052247956 0.115115225 -0.11025375
000380 e0 73 48 bd da 5e ad bd 34 59 6b bd 80 d2 62 3d
       -0.048938632 -0.08465357 -0.057458118 0.05537653
000390 10 21 fb 3d c0 25 b8 bb 50 cb 74 bd 90 a3 e5 3d
       0.122621655 -0.0056197345 -0.059764206 0.11212838
0003a0 b0 19 b0 3c 0c 38 23 bd 2c fc 16 bd 80 1f 0a bd
       0.021496624 -0.039848372 -0.036861584 -0.033721447
0003b0 6a eb f9 3d 16 54 c9 bd c0 ad 75 bb 2c 64 18 bd
       0.12203105 -0.09830491 -0.0037487596 -0.037204906
0003c0 70 08 16 bd fe 1e 94 3d 48 0d 27 3d e4 e5 32 bd
       -0.03662914 0.07232474 0.04078415 -0.043676272
0003d0 d8 3f 87 bd d4 aa 43 bd 6c 95 5b bd e8 f2 99 bd
       -0.06603974 -0.047770336 -0.053609297 -0.07517034
0003e0 80 58 e7 3b c6 b5 96 3d 28 f9 84 3c 00 03 9a bc
       0.0070601106 0.07358889 0.016232088 -0.018800259
0003f0 b0 8d 4f 3d f0 94 dd 3d f0 f8 e2 3d 98 14 28 3d
       0.050672233 0.10819423 0.11082637 0.041035265

lstm.bias_ih_l0 f4 [256]
000000 c4 9a be 3d d8 8d 5e bd 46 a8 e6 bd 9c 57 ff bd
       0.09306863 -0.05433449 -0.11262564 -0.12467882
000010 54 f7 20 3d a0 82 41 bd 0c a0 62 bd 7e 36 e7 3d
       0.03929837 -0.047243714 -0.055328414 0.112896904
000020 36 72 cb bd 00 21 67 3d 28 4b 19 3d c8 03 3c 3d
       -0.099338934 0.056427956 0.03742519 0.045902044
000030 10 95 63 bc a4 0a ed bd e8 32 cb 3c 3a 36 d2 3d
       -0.01389052 -0.11574295 0.024804547 0.10264249
000040 0c 39 a4 3d 54 86 53 3d b8 ac 8d 3c 46 58 cb bd
       0.08018693 0.051641777 0.017294273 -0.09928946
000050 9c 1f 96 3d 7c bc 9f 3d 58 87 a4 bd 38 57 fb 3c
       0.07330248 0.077996224 -0.08033627 0.030681238
000060 84 02 c3 3d 70 ca 25 bc 54 e4 e7 3d 36 f8 c2 3d
       0.09521964 -0.010119066 0.11322847 0.09519999
000070 1a 6a a3 bd 8c cb 2e 3d d2 b5 97 bd d0 74 01 3c
       -0.07979222 0.042674586 -0.07407726 0.007901385
000080 d8 7a 87 3d 00 16 1a 3b 90 61 b5 bc 6a ef 92 3d
       0.066152275 0.0023511648 -0.022141248 0.07174571
000090 70 9c 03 3c c8 38 c2 3d fa bd b1 3d d4 85 40 3d
       0.008032903 0.094834864 0.08678813 0.04700263
0000a0 34 00 66 3d 54 2a b8 3d d8 0f 16 bd 58 bc c7 bd
       0.056152537 0.089924484 -0.036636204 -0.097527206
0000b0 4c 6c bd bd 6c 79 46 bd 7c ec 58 3d 9c de b3 bd
       -0.092491716 -0.04845564 0.052959904 -0.08782694
0000c0 1c 3e 0f 3d 84 76 c5 bd e8 8f a9 bd 70 a4 54 bc
       0.03497134 -0.09641746 -0.08279401 -0.012978658
0000d0 56 c6 c4 3d 3a fc a7 bd b4 74 66 3d 42 66 da 3d
       0.09608142 -0.08202405 0.05626364 0.106640354
0000e0 dc b7 db 3d 4a a9 b1 3d 0c 33 83 bd fa 1f a2 bd
       0.10728428 0.086748675 -0.06406221 -0.07916255
0000f0 c0 ad 20 bd 30 68 54 bd ae 62 d5 bd 00 8a 2a 3b
       -0.0392282 -0.051857173 -0.10419212 0.0026022196
000100 f0 05 0a 3d 0e 28 87 3d 9e 55 8d 3d c6 f1 ed bd
       0.03369707 0.06599437 0.06901096 -0.1161838
000110 20 ac 9c 3c 44 14 bf bd e4 a3 0c 3d 80 c0 28 3c
       0.019125044 -0.09330037 0.034335986 0.010299802
000120 00 f9 9a ba 1c fb 30 3d 82 47 e8 bd 90 4e 1f bc
       -0.0011823475 0.043208227 -0.11341764 -0.009723321
000130 c0 08 63 3c 50 2e 65 bd 20 d8 6a bd fa d7 80 bd
       0.013857067 -0.05595237 -0.05733502 -0.06291194
000140 3e 6f e6 bd b0 ba 9b bd c2 3c eb 3d 2a af 8a 3d
       -0.112516865 -0.07603967 0.11486198 0.06771691
000150 08 77 93 3d 12 22 b4 bd a8 52 cf 3c 88 69 ad 3d
       0.07200438 -0.08795561 0.025307968 0.08467394
000160 a6 71 c2 bd 54 4c 74 3d 40 e1 de 3b 2c 81 db 3d
       -0.09494333 0.059643105 0.0068017542 0.10717997
000170 98 64 cb bd 90 dd b0 bc 08 e1 ec 3c 76 14 be 3d
       -0.09931296 -0.021590024 0.028915897 0.09281246
000180 58 99 a2 bd e8 7c c7 3d 00 f5 a0 bb e8 ca ae 3c
       -0.07939404 0.09740621 -0.004912019 0.021336988
000190 68 b8 8f bc ac 0f 1b bd 30 56 a2 bd 7a ce cd 3d
       -0.017543986 -0.037856743 -0.07926595 0.10049148
0001a0 a0 bb d2 bb f0 f2 7b 3c 20 29 ba bd ba e7 92 3d
       -0.006431058 0.015377745 -0.09089875 0.071731046
0001b0 50 c9 80 3c 16 5d cd 3d 80 91 e9 bd ea 8d 9c bd
       0.015720993 0.1002752 -0.11404705 -0.076442555
0001c0 58 2a ab 3c 6e a8 e3 bd a8 36 aa bd 7a eb be 3d
       0.020894215 -0.1111611 -0.08311206 0.09322257
0001d0 be 59 a4 3d 40 0a 0c 3d 58 ef b4 3d 5c 4d 4e 3d
       0.080249295 0.034189463 0.08834714 0.050366744
0001e0 b8 44 ea bc 44 69 24 bd 5a 70 bf 3d da c7 94 3d
       -0.02859722 -0.04013945 0.09347601 0.07264681
0001f0 ce e0 ee 3d 2e c8 b2 3d 98 aa db 3d d0 4d 90 3c
       0.11663972 0.087295875 0.107258976 0.017615229
000200 c6 16 f5 3d d8 a7 a1 bd ec 80 22 bd 76 21 a7 3d
       0.11967234 -0.07893342 -0.03967373 0.08160679
000210 66 fc ca 3d f0 b6 f9 bd 84 31 49 bd 10 97 a6 3d
       0.099114224 -0.12193096 -0.049119487 0.08134282
000220 40 1c 82 3d 8c ac 5a 3d 90 2c 29 bc dc 81 98 3d
       0.063530445 0.05338721 -0.010325566 0.07446644
000230 98 ab 5d 3d e8 a5 b4 bd 0c 65 77 3d 08 63 8f bc
       0.054118723 -0.088207066 0.0603991 -0.017503276
000240 80 c9 b0 3d 90 b9 5d 3c e2 c9 8c bd 20 a6 5d bd
       0.08632183 0.013533011 -0.068744436 -0.054113507
000250 d0 2e b0 bd 18 a6 fa bd d0 e4 99 3d b6 c9 87 bd
       -0.08602679 -0.12238711 0.07514346 -0.0663027
000260 5c 2b 83 3d d0 55 f3 bd 1c ae bc 3d c0 9e ab bd
       0.064047545 -0.11881602 0.09212896 -0.083798885
000270 d4 93 bb 3d a4 16 0c bd 68 fc be 3d 20 38 c3 3d
       0.09159055 -0.03420128 0.093254864 0.09532189
000280 a8 d0 21 3d a2 0e d5 bd 2e 87 e6 3d 34 76 92 3d
       0.03950563 -0.104031816 0.11256252 0.07151452
000290 b6 ab ab 3d 90 da 84 bd d4 91 f1 bd 66 e5 e4 3d
       0.08382361 -0.06487 -0.11795393 0.11176567
0002a0 c0 2c c8 3d e4 34 95 3d 00 70 69 3a c0 b2 22 bc
       0.097741604 0.07285479 0.0008904934 -0.009930313
0002b0 ea e9 d9 3d 8c 0b 38 3d dc 00 78 bd a2 34 a4 3d
       0.10640319 0.044932887 -0.060547695 0.080178514
0002c0 be 66 9f bd 4c 13 e4 3d d0 78 c5 bc 00 64 70 bd
       -0.077832684 0.11136493 -0.02410546 -0.058689117
0002d0 ae cf dd 3d 80 d7 fc 3a 0a 21 e9 3d 70 ec ae bc
       0.108306274 0.0019290298 0.11383255 -0.021352977
0002e0 c8 52 6a 3d ec db d6 bd 84 ff 07 bd 3e 5d f3 3d
       0.057207853 -0.104911655 -0.033202663 0.11883019
0002f0 8a 64 ae 3d 46 14 9d bd 36 43 d3 bd a8 40 a1 bd
       0.0851527 -0.076698825 -0.10315554 -0.0787366
000300 e4 ea f1 bd 08 da 2b bd 28 25 c1 bd 64 25 2c bd
       -0.1181238 -0.041955978 -0.09430915 -0.042027846
000310 a0 eb bb bd 1e 88 c6 3d 44 ba c9 bd 96 86 cb 3d
       -0.09175801 0.09693931 -0.098499805 0.099377796
000320 b8 32 2d 3d 00 92 6f bc 22 86 ef bd 08 6a db bd
       0.042284697 -0.014622211 -0.11695506 -0.10713583
000330 44 4e 2b 3d 84 bb 66 3d cc 04 43 bd e8 c2 d5 bc
       0.041822687 0.056331173 -0.047611997 -0.026093915
000340 d0 f7 94 3c b0 cc 0f 3d 74 93 f9 bd d8 4b fb bd
       0.018184572 0.035107315 -0.121863276 -0.122703254
000350 70 fa 78 3c 6e 80 a6 bd d0 8f 6b bd 80 42 3f bd
       0.015196428 -0.08129965 -0.057510197 -0.04669428
000360 5c 54 34 bd ca df c7 bd fe 75 b6 bd 10 1b 62 3c
       -0.044025764 -0.09759481 -0.08909224 0.0138003975
000370 bc 88 28 3d c6 3d 99 3d ee bc ca 3d 10 11 88 bd
       0.041146025 0.074824855 0.09899317 -0.066438794
000380 b6 72 8c bd 0c 8a 47 bd 26 53 96 3d 60 d9 f7 3c
       -0.06857817 -0.048715636 0.07340078 0.03025502
000390 6c d8 ad bd 02 aa b1 bd 14 9e 24 3d 5e d2 f6 bd
       -0.08488545 -0.086750045 0.040189818 -0.12051843
0003a0 70 7d 18 bd 04 21 c2 bd 40 a3 b9 3c a4 ce 73 bd
       -0.037229 -0.094789535 0.022660851 -0.05952324
0003b0 68 9b cf 3c 80 85 f2 bc 40 cc 0d 3d be 92 8e bd
       0.025342658 -0.029604673 0.034618616 -0.069615826
0003c0 00 17 15 bd c0 b8 0f bc 98 e3 4d bd cc 59 20 bd
       -0.036398888 -0.008772075 -0.05026588 -0.039148137
0003d0 98 43 d5 3c 94 d1 5c bd 74 cc f8 bd dc 50 d7 bd
       0.026033208 -0.053910807 -0.12148371 -0.105134696
0003e0 78 35 15 bd e0 75 93 3b f4 50 09 3d 2a 8f a6 bd
       -0.036427945 0.004500136 0.03352447 -0.08132775
0003f0 7a 21 e7 3d 60 f4 17 bc 42 e6 89 bd 2a 3a e4 3d
       0.11285682 -0.009274572 -0.06733371 0.111439064

lstm.bias_hh_l0 f4 [256]
000000 8a 06 97 3d 52 49 be 3d 32 13 f9 3d fe 5a cb bd
       0.07374294 0.092913285 0.12161864 -0.09929465
000010 ea 84 c7 bd 80 16 12 bd 7c d8 3c 3d 96 c1 d1 bd
       -0.09742148 -0.03566599 0.046104893 -0.10242002
000020 00 7e 29 bd 50 c2 4e bc 86 76 ab 3d 00 bb 83 3c
       -0.04137993 -0.01261957 0.08372216 0.01608038
000030 60 86 90 bc 06 3a e2 3d 52 72 de bd 9c e5 67 3d
       -0.0176422 0.11046223 -0.108616486 0.056615457
000040 30 fb 20 bc 2c b9 14 3d 2e 1b d6 bd e0 56 db bd
       -0.009825513 0.036309406 -0.10454403 -0.107099295
000050 10 07 59 bd 32 c8 94 3d 50 a7 43 3d 10 23 d8 3d
       -0.05298525 0.07264747 0.047766984 0.10553563
000060 86 7e 98 3d 78 51 29 3d 6c 69 92 3d ac 38 0e bd
       0.074460074 0.04133746 0.07149014 -0.034722015
000070 6c 6a 48 bd c4 b3 f6 3d 80 70 9b bc 70 ab cf bc
       -0.048929617 0.12046006 -0.018974543 -0.025350302
000080 3a 4e 8d bd 22 f2 d3 3d 64 ca 9a bd 6e 71 9c 3d
       -0.06899686 0.103489175 -0.07558134 0.076388225
000090 fe d4 ad bd d2 ef b8 bd 30 1d 02 3d 60 c3 b4 3b
       -0.08487891 -0.09030117 0.031766117 0.0055164546
0000a0 f2 6a ce bd ce 8c 89 bd a0 f2 df 3c d4 04 3f 3d
       -0.10078992 -0.067163095 0.027337372 0.046635464
0000b0 c4 9a ab bd f0 0a c6 bc 94 aa 15 bd 1a 10 f2 3d
       -0.083791286 -0.024175137 -0.03653963 0.118194774
0000c0 76 4e 97 3d 6c d6 5c 3d 94 5f f7 bd 8c d7 e8 bd
       0.07388012 0.053915426 -0.12078777 -0.11369237
0000d0 42 7f ef bd 90 1f b5 3d e4 d6 49 3d e0 a4 42 bc
       -0.116941944 0.08843911 0.0492772 -0.01188013
0000e0 ee 17 8a 3d dc 73 6c bd 70 ac d8 3d 40 4e ba bd
       0.067428455 -0.05772768 0.10579765 -0.09096956
0000f0 d0 d0 d0 bc 20 7a e6 3d 80 d6 1c 3c 4e 5e 9b bd
       -0.025490195 0.11253762 0.009572625 -0.075863466
000100 52 69 9e 3d 28 e6 e2 bd 46 44 aa bd 50 20 33 3d
       0.07734932 -0.11079055 -0.083138034 0.043731987
000110 88 14 a1 3c a8 0b 0c 3d cc e1 70 bd 78 df a7 bc
       0.01966311 0.034190804 -0.058809087 -0.0204923
000120 68 47 7a bd bc 44 44 3d 18 40 f8 bd 6c 84 99 bd
       -0.061103255 0.047917113 -0.121216 -0.074959606
000130 8a 56 86 bd d4 52 3d bd ae 1d 8e 3d 04 4d 8b bd
       -0.06559475 -0.04622157 0.06939255 -0.06801799
000140 60 f1 13 bd 20 7d 9d bd f0 8d c4 3d 34 11 69 3d
       -0.036118865 -0.07689881 0.09597385 0.05690117
000150 0c 7d ee bd 80 6e 53 3c 46 c9 c2 3d e8 46 0a 3d
       -0.116449445 0.012904763 0.09511046 0.033759028
000160 b8 dd 99 3d 46 a0 85 3d 68 f6 88 bc 18 14 d4 3c
       0.075129926 0.0652471 -0.016719058 0.025888488
000170 f8 17 d4 3c b0 27 3b bc bc bc f2 3d 98 e2 e6 bd
       0.025890335 -0.011423036 0.118524045 -0.11273688
000180 ce b5 d3 bd 0c 1a 47 bd 8e ec f8 3d d8 23 4a bd
       -0.10337411 -0.048608825 0.12154494 -0.04935059
000190 30 4d 89 3d 24 19 46 bd 10 d6 89 bc c0 ca fc 3d
       0.067041755 -0.04836382 -0.016825706 0.12343359
0001a0 c2 d6 89 bd a8 6e df bd 20 70 f5 bb 74 d2 39 bd
       -0.06730415 -0.10909778 -0.007490173 -0.04536672
0001b0 8a 38 b2 3d 86 7c f1 bd 20 7d ad 3b 7e 75 8d bd
       0.0870219 -0.11791329 0.005294457 -0.069071755
0001c0 2a 15 fd bd c0 e5 41 3d f4 ec 24 bd f0 f8 71 bd
       -0.12357552 0.047338247 -0.04026504 -0.059075296
0001d0 20 c1 28 3d 80 54 8d 3a ba d7 91 3d 8e 93 9c bd
       0.041199803 0.0010782629 0.07121225 -0.07645331
0001e0 d0 1d 24 bc 78 29 d5 3c 3c e3 c6 bd 28 68 f7 3d
       -0.0100168735 0.02602075 -0.0971131 0.12080413
0001f0 40 24 1f bd f8 56 b4 3d 7c bc 53 3d e8 e7 f1 bd
       -0.03885293 0.088056505 0.051693425 -0.11811811
000200 40 93 71 bd b8 00 0b 3d f8 93 84 bd 10 1d c8 bd
       -0.05897832 0.033936232 -0.06473535 -0.09771168
000210 2c d0 1c 3d 50 e5 2d 3d e8 f6 2d 3d fa 25 b8 3d
       0.038284466 0.042455018 0.042471796 0.089916185
000220 04 d0 b9 3d 90 09 4b 3c d0 72 d2 bd 50 67 d8 3d
       0.09072879 0.012392417 -0.10275805 0.1056658
000230 fc 60 9b bd 36 b9 83 bd 18 eb b5 3c cc 56 cf bd
       -0.07586858 -0.064318106 0.022206828 -0.10123977
000240 40 a1 5a 3c 8e 59 f3 3d 7c 87 19 bd c6 49 98 bd
       0.013344109 0.118823156 -0.037482724 -0.07435946
000250 d2 f3 c4 3d 10 4b 34 3c 0a ba 83 bd a0 71 9b bd
       0.096168175 0.011004224 -0.064319685 -0.075900316
000260 d6 be eb 3d dc 65 b5 3d 60 c5 8d bb f4 da 73 3d
       0.115110084 0.08857319 -0.0043265074 0.05953498
000270 58 39 bf 3c 00 6c a2 bc 52 1f e0 3d 20 22 bd bb
       0.023342773 -0.019826889 0.10943474 -0.0057718903
000280 50 fe 4c 3d 70 28 a3 bd 30 37 80 3d 0c 1c 48 3d
       0.05004722 -0.07966697 0.06260526 0.048854873
000290 90 c9 40 bd dc 07 ff bd d0 73 6d 3d 54 5a 73 bd
       -0.047067225 -0.12452671 0.057971776 -0.059412315
0002a0 ca 7c f8 bd 6e b1 a2 3d 18 c1 a1 bc 7c 5e 9e bd
       -0.121331766 0.07943998 -0.019745395 -0.07732865
0002b0 78 b4 bb bd 90 5a 1c bd 2c 89 99 3d c8 cd 87 bd
       -0.09165281 -0.038172305 0.074968666 -0.066310465
0002c0 50 90 f0 bd 70 cd 3b 3d d0 58 cb bc a0 0e f4 3b
       -0.117462754 0.045850217 -0.024822623 0.0074480325
0002d0 12 05 a0 3d fe 0a df 3d 08 88 df 3c 18 84 62 bd
       0.07813467 0.108907685 0.027286544 -0.055301756
0002e0 28 4f 4c bd 60 1e 93 3b 3c 2a cc 3d 56 2d a2 3d
       -0.049880177 0.004489705 0.09968993 0.079188034
0002f0 60 7e 70 3d e4 73 fc bd 90 e5 0f bc b4 bd 89 bd
       0.05871427 -0.12326792 -0.008782759 -0.06725636
000300 72 f2 87 3d e6 3c 93 3d e0 70 dd 3b 66 a0 c5 bd
       0.0663804 0.0718935 0.0067578405 -0.09649734
000310 8e 7f 93 3d 60 90 b2 3d a0 0b 7a 3d 8c b5 c8 bd
       0.072020635 0.087189436 0.061046243 -0.09800252
000320 1c 25 57 bd b0 f3 f6 3d a8 56 da 3d f0 51 ee 3d
       -0.052525625 0.120581985 0.106610596 0.11636722
000330 58 00 94 bc be 40 f1 bd 8c 67 1c bd 68 45 a5 3c
       -0.01806657 -0.11779927 -0.038184687 0.020174697
000340 f6 24 e1 bd 60 89 22 3c 12 8c e3 3d 3c 60 fb 3d
       -0.10993378 0.009920448 0.11110701 0.122742146
000350 26 ba bc 3d 30 93 91 3c c8 df bd bc 22 db 8c 3d
       0.092151925 0.01777038 -0.023177996 0.06877734
000360 80 7e dc 3c 38 44 12 bd ba 34 f0 bd 90 ad c9 3c
       0.026915789 -0.03570959 -0.11728807 0.024618894
000370 82 a5 b9 3d 00 10 70 ba 80 84 c5 bc 00 bd e2 bc
       0.09064771 -0.00091576576 -0.024111032 -0.027678013
000380 30 bd 8f bc 00 ea a9 bc f6 9a a7 3d c0 da 3a bc
       -0.017546266 -0.020741463 0.08183853 -0.011404693
000390 80 ce ce ba 7e 9f 9e bd 00 4d 99 bb b8 6e 24 3d
       -0.0015778095 -0.077452645 -0.0046783686 0.040144652
0003a0 b8 89 d9 bc 24 d1 58 bd 54 1b 66 3d 74 00 ef 3d
       -0.026554927 -0.052933827 0.056178406 0.11670008
0003b0 e8 7c 45 bd 30 00 8f 3c 84 8f 7e 3d e0 fd bd bd
       -0.048214823 0.017456144 0.062148586 -0.092769384
0003c0 90 28 2e bd 10 e8 99 3c 28 f2 23 bd be 23 9d bd
       -0.042519152 0.018787414 -0.04002586 -0.07672833
0003d0 e8 3e 00 bd e8 8c 6b 3d 70 8f 97 bc c2 fb eb bd
       -0.031309992 0.057507426 -0.018501014 -0.11522628
0003e0 94 63 15 3d d8 31 90 3c e0 b7 c0 3c 06 ff 81 bd
       0.03647192 0.017601892 0.023525178 -0.0634747
0003f0 fc dd 3e 3d 3e c3 bb 3d 10 9c ad bd 54 76 2b bd
       0.04659842 0.09168099 -0.08477032 -0.041860893

lstm.weight_ih_l1 f4 [256, 64]
000000 c9 30 d8 3d fe 27 ba bd a9 65 4c 3d 50 66 07 bd
       0.1055618 -0.09089659 0.04990164 -0.033056557
000010 f4 9d 74 3d 0b 4f f4 bd b6 9f fd bd 1c 8d f4 3d
       0.05972095 -0.11929139 -0.12383978 0.11940977
000020 74 d4 e0 bd 40 ca 98 bc 8e 2c a0 3d cc b8 b5 3d
       -0.10978022 -0.018651128 0.07820998 0.08873138
000030 2c 06 62 bd cc f6 26 bd b1 92 0d be 1c 5f a7 bd
       -0.055181667 -0.040762708 -0.1382549 -0.081724375
000040 d0 94 55 3c 10 ec bd 3c 58 d5 39 bd 6c 27 17 bd
       0.013035968 0.023183852 -0.045369476 -0.03690283
000050 3c cb d3 bd 36 be 90 bd 62 15 e1 bd 60 00 40 3d
       -0.10341498 -0.0706753 -0.109904066 0.046875358
000060 80 7f d6 3b 94 de 48 3d 9c f0 98 bd a4 84 1e bd
       0.006545961 0.049040392 -0.074677676 -0.038700715
000070 75 da 35 b9 87 a9 35 3b c4 85 94 bd 2e ae 29 3e
       -0.00017342887 0.0027719454 -0.07252076 0.1657035
000080 c0 06 17 3e 30 9c da bd 06 4b 21 3e 5b f3 c5 3d
       0.14748669 -0.10674322 0.15751275 0.09665557
000090 90 27 1f 3d f8 41 b2 bd 96 3c 6d 3d d0 19 d3 bc
       0.03885609 -0.08703989 0.057919107 -0.025769144
0000a0 08 f5 cc bc 68 6b 23 3d 20 36 e4 bb 40 38 5b 3d
       -0.025019184 0.039897352 -0.00696446 0.05352044
0000b0 78 f9 ba bc 2e 6a 81 3d 50 2c 2c 3d 3e 8d ac 3d
       -0.022824034 0.0631908 0.042034447 0.08425377
0000c0 27 d2 77 bd 08 ec a2 3c da a5 a7 3d 08 3f 9f bc
       -0.06050315 0.01988794 0.081859306 -0.019439235
0000d0 80 64 9f bd e0 ce d9 bc f0 cd c8 3d 3e e3 c2 bd
       -0.07782841 -0.026587903 0.098049045 -0.09515999
0000e0 f8 e8 90 bd 4c 8e af bd 1c 6f 1f 3d c8 14 e2 3d
       -0.07075685 -0.08572063 0.03892432 0.1103912
0000f0 36 75 99 3d ea f7 ef 3d 7a 84 98 3d 5c 6c f7 3d
       0.07493059 0.11717208 0.07447143 0.12081215
000100 67 66 4d 3e e0 8b be bd 6d 21 3b bd d4 31 1f 3d
       0.20058595 -0.09304023 -0.045686174 0.03886588
000110 46 ef 98 bd 89 8c 38 be 40 ae 24 3b a8 8a a9 bc
       -0.07467513 -0.1802236 0.0025128275 -0.020696
000120 98 87 d2 bc 68 4a d7 3c 7e 80 99 3d fa 79 a9 bd
       -0.025699422 0.026280597 0.07495211 -0.08275218
000130 00 9a ae b9 90 ad b1 bd ca 22 4e bd 80 90 64 bb
       -0.00033302605 -0.086756825 -0.050326146 -0.0034876168
000140 54 47 f8 3d 32 02 e4 3d e0 72 24 bc 00 22 2b 3b
       0.1212298 0.11133231 -0.010037154 0.0026112795
000150 44 bd 20 bd a8 ab 15 ba 70 bb b0 bc 80 45 c7 bc
       -0.039242998 -0.00057094777 -0.021573752 -0.024325132
000160 00 29 4a 3c c0 75 82 3b d0 3a fb 3d a0 61 70 3d
       0.012338877 0.003981322 0.12267077 0.058686852
000170 ad 1d cb 3d 9d cd d0 3d 28 67 c7 3d e1 1a e9 3c
       0.099177696 0.101954676 0.09736472 0.0284552
000180 8c 7e af 3d 10 f1 18 3d 6a ee 57 3d c4 2e 94 bc
       0.08569059 0.03733927 0.052717604 -0.018088706
000190 4c 9f c4 3d cc 55 d6 bd da 58 38 3e d0 53 2b bd
       0.09600696 -0.10465583 0.18002644 -0.041827977
0001a0 70 78 1b 3d 68 e9 95 3c bc 72 a7 3d 74 09 28 bd
       0.037956655 0.018299773 0.08176181 -0.04102464
0001b0 18 b4 4d bd a4 33 5a 3d 99 f5 0a be 00 d9 0f bc
       -0.05022058 0.053271905 -0.1357025 -0.008779764
0001c0 de cb 00 bd 30 1a bd bc fc fc 90 3c 28 5c 99 3c
       -0.031444423 -0.023083776 0.017698757 0.018720701
0001d0 64 da d1 bc 2c b2 32 bd f0 28 ec 3c 01 dc e9 bc
       -0.025616832 -0.04362695 0.028828114 -0.028547289
0001e0 34 3b 1a 3d 7c 65 8a bd 28 06 18 3e 32 fd bd bd
       0.037654117 -0.06757638 0.14846098 -0.09276809
0001f0 66 fa ea 3d 0c 50 c9 3d b0 f4 4a 3c d8 bf ba 3c
       0.11473541 0.09829721 0.01238744 0.022796556
000200 4f de 96 bd fe f6 9d 3d ff 8f bf bc 20 07 a0 bc
       -0.07366621 0.07713126 -0.023384092 -0.019534647
000210 84 f0 43 bd 82 9c 9c bb 28 6c db 3d d4 23 c6 3d
       -0.047836795 -0.0047793994 0.107139885 0.096748024
000220 94 7b cc bd 70 66 57 3d a8 d6 2f bd 2c 6e 4b 3d
       -0.09984508 0.052587926 -0.04292932 0.049665615
000230 38 d2 e6 bd a4 49 21 3d c7 e8 fd bd b2 f5 d9 3d
       -0.11270565 0.03937687 -0.123979144 0.10642566
000240 8e 31 cf bd 60 6e 50 bc 50 62 b8 bd 04 77 3d bd
       -0.10116874 -0.012721628 -0.090031266 -0.04625608
000250 86 6a 99 3d 22 dd 87 bd d8 c3 58 bd 7e 20 d6 3d
       0.07491021 -0.066339746 -0.052921146 0.10455416
000260 68 bd e7 3c 68 fb 9e 3c 38 86 b9 3c 00 da 48 3d
       0.028288558 0.01940699 0.022647008 0.049036026
000270 a0 fa 2d 3d 86 34 28 3e ee 65 a3 bd 3e 09 84 3d
       0.042475343 0.16426286 -0.07978426 0.06447075
000280 85 21 bb 3d f4 50 59 3d 95 1c bb 3d e6 75 48 bc
       0.09137253 0.05305572 0.09136311 -0.01223514
000290 fe 46 e2 3c be f0 84 bd 07 4a 8e bd d8 b9 93 3c
       0.027621742 -0.064912304 -0.06947713 0.018032953
0002a0 ea f6 d6 3d 54 14 ed bd d6 bc 96 bd 9c 4c 7c bd
       0.10496314 -0.11576143 -0.07360236 -0.061596498
0002b0 e0 06 d1 bd 00 fd 83 ba 25 6a 18 be a8 e0 b9 bd
       -0.102063894 -0.0010069907 -0.14884241 -0.09076053
0002c0 db cf 94 3d 06 54 b9 3d 83 56 15 3c 1e 33 82 3d
       0.07266208 0.09049229 0.009114864 0.06357406
0002d0 cc 0c 10 3d 5c 85 83 bd a0 6e eb bc c2 15 91 3d
       0.035168454 -0.06421921 -0.028739274 0.07084228
0002e0 ce 44 d5 3d 60 68 e2 bb 94 2f 88 bd 60 60 90 3c
       0.10413514 -0.006909415 -0.066497 0.01762408
0002f0 e4 4b 3d bd 74 66 35 3d a8 96 ec 3c b4 44 2b 3d
       -0.046214953 0.04428716 0.028880432 0.041813567
000300 38 a5 2d 3e 2c 22 4b 3d 53 c1 9c 3d 42 90 94 3d
       0.16957557 0.049593136 0.07654061 0.072540775
000310 40 e4 85 3c be 47 aa bd 0e d1 f6 bd a4 e0 1a 3d
       0.01634419 -0.08314465 -0.12051593 0.03781189
000320 b0 d0 c3 3c 12 70 9f 3d f8 af a6 bc b4 7e 84 bd
       0.02390322 0.077850476 -0.02034758 -0.06469479
000330 7a 87 db 3d 9a 6c e8 bd f1 ba 7f bd f8 40 a7 3c
       0.107191995 -0.11348839 -0.06243414 0.020416722
000340 70 73 ad 3d 08 8f 9d bc 18 60 d0 bc 64 15 44 bd
       0.084692836 -0.019233242 -0.025436446 -0.047871962
000350 e4 bc e4 3d d5 aa 0e be 7a cb d9 3d a0 cd 0e bd
       0.111688405 -0.13932355 0.10634513 -0.034864068
000360 ce 55 e7 3d 4a cb cf 3d 34 6d 69 3d 70 03 b3 3c
       0.11295663 0.10146196 0.05698891 0.021852225
000370 36 a6 03 3e 8f 24 e4 3c c0 b6 c8 bc d4 f3 bc bc
       0.12856373 0.027849464 -0.024501204 -0.023065485
000380 19 7c 9b 3d 20 0a 8a 3d 52 34 5d 3c 90 e3 61 bd
       0.07592029 0.067402124 0.013501244 -0.05514866
000390 96 4e 8b 3d 80 54 80 3d eb c4 2b 3d 80 1a 0a 3b
       0.068020985 0.06266117 0.041935842 0.0021072924
0003a0 b2 6f aa bd 20 af a9 3c 0a 3c d0 3d 08 e4 28 3d
       -0.083220854 0.020713389 0.101677015 0.041233093
0003b0 44 aa 3f 3d c0 8c 60 bc 00 fd 9a bd 90 0e 74 3c
       0.046793237 -0.013705432 -0.07567787 0.01489605
0003c0 34 51 ba 3d 60 8a 77 3d 33 c1 b3 3d 68 cf c0 bd
       0.090975195 0.0604347 0.08777084 -0.094145596
0003d0 d8 f5 d1 bc c6 a2 dc 3d 40 80 b7 3c 2f ac 03 be
       -0.025629923 0.10773234 0.022400022 -0.12858652
0003e0 58 ac b0 3d c4 4b 90 3d 16 e9 2f 3e e8 dd bb 3c
       0.08626622 0.07045701 0.17178759 0.022932962
0003f0 60 08 ca 3b 30 f0 42 bc a0 56 66 bc a0 9d 82 bd
       0.006165549 -0.0118980855 -0.014058739 -0.06377721

lstm.weight_hh_l1 f4 [256, 64]
000000 a4 44 33 bd d8 1b d8 bc 08 55 fa 3c c0 58 0b 3b
       -0.043766633 -0.026380464 0.030558124 0.0021262616
000010 4a 3d b9 3d 50 ec ff 3d 14 17 3f bd 70 41 f1 bd
       0.09044893 0.12496245 -0.04665287 -0.11780059
000020 6c 27 bd bd 10 63 48 bd ba 18 d0 3d 8c c7 c5 3d
       -0.09236035 -0.0489226 0.10160966 0.09657201
000030 7c 8c 91 bd bc 6d 16 bd f0 07 4b 3d 84 f9 87 3d
       -0.071068734 -0.036725745 0.049568117 0.06639388
000040 46 07 b4 3d 84 c1 44 bd 7e 18 bc 3d 8e 6b e3 3d
       0.0879045 -0.048036113 0.09184359 0.11104499
000050 9c 5b b3 bd 84 8e 47 bd ba fa 90 bd f0 8d 29 bd
       -0.087577075 -0.048719898 -0.07079072 -0.041395128
000060 74 d0 8e bd d0 aa e8 bd fc 8f ea 3d b0 4b 6b 3c
       -0.06973353 -0.11360705 0.11453244 0.014361307
000070 c0 7a 2f 3b 54 74 50 3d ba c1 bf 3d 96 2c ff bd
       0.0026776046 0.05089219 0.09363122 -0.12459676
000080 9c fe d7 3d 5e 24 d9 bd 60 ff 28 bc 60 ae f9 bc
       0.1054661 -0.106026396 -0.010314792 -0.030478656
000090 ec a4 af bd 6c a4 bd bd 24 b1 e5 bd dc 95 ec 3d
       -0.08576378 -0.092598766 -0.112154275 0.11552021
0000a0 c4 67 e6 3d c2 86 f5 3d c2 d7 bd bd 8a fb cb bd
       0.112502605 0.11988594 -0.09269668 -0.09960087
0000b0 0a 07 cb 3d 4c a5 93 bd 68 4b b6 bd 10 68 82 3d
       0.09913452 -0.07209262 -0.08901101 0.063675046
0000c0 dc fc f4 3d 0a ea ed bd f4 0d 05 3d 96 45 98 3d
       0.119622916 -0.11616905 0.03248401 0.074351475
0000d0 64 4b 17 3d ec 29 ba 3d f4 c0 97 3d e8 83 4a 3d
       0.036937132 0.09090027 0.0740985 0.0494422
0000e0 84 b3 cf bd 76 2c 91 bd 70 47 3e 3c 28 99 2b bd
       -0.10141662 -0.070885584 0.011613712 -0.041894108
0000f0 94 54 fa bd f8 d9 fb 3c 28 5d 0e bd 96 b0 ae bd
       -0.12223163 0.030743584 -0.03475681 -0.08529775
000100 00 90 2d 3c 20 dc af 3d e0 f0 59 bc f8 e7 e0 3c
       0.010593414 0.085869074 -0.013302058 0.027454361
000110 c0 6d 68 3d f6 f0 c6 bd 90 a0 ad 3d 8e df 84 bd
       0.05674529 -0.097139284 0.084778905 -0.06487952
000120 80 ad 07 3b 20 f1 d2 3d b4 5f aa 3d fc d9 a1 bd
       0.002070278 0.10299897 0.08319035 -0.07902905
000130 b0 00 ee bd 06 bd e3 bd 28 a0 fb bd e4 e2 f0 3d
       -0.11621225 -0.11120038 -0.12286407 0.11762026
000140 d0 a9 42 bc e0 b0 51 3c 40 8e db bc 04 54 0d 3d
       -0.011881307 0.012798518 -0.026801229 0.03450395
000150 de 0a e3 bd a8 98 c3 3c 9e 94 cb 3d f2 e4 e1 3d
       -0.11086057 0.023876503 0.09940456 0.11029996
000160 e6 d8 cd 3d b8 0a 48 bd 44 4d e4 3d d6 ac c4 bd
       0.10051136 -0.048838347 0.1114755 -0.09603278
000170 94 92 b6 3d 6c c0 bf 3d 10 8b a7 3d 40 c0 24 3b
       0.08914676 0.093628734 0.08180821 0.0025139004
000180 b0 c0 1f 3d a4 ad 1d 3d 0a da ac 3d 34 69 22 3d
       0.03900212 0.038495675 0.08440025 0.03965111
000190 c0 f5 66 3b a0 41 d9 bb 0a 7f 9f bd ac 9f 11 3d
       0.0035241693 -0.0066301376 -0.07787903 0.035552666
0001a0 54 5f de 3d f8 7d 5a 3d 1c bf a1 3d e2 89 c5 3d
       0.10858026 0.05334279 0.07897779 0.0964544
0001b0 e0 1b e9 bc 9c 09 0a 3d 40 56 b2 bd 30 5d 8d bd
       -0.028455675 0.03370057 -0.08707857 -0.0690254
0001c0 f8 42 d1 bc 24 a2 59 3d 28 cf c9 3d 66 65 bf 3d
       -0.025544629 0.053133145 0.09853965 0.09345512
0001d0 20 c7 bc 3c f0 e8 50 3c 48 e9 52 bd 60 d5 20 3c
       0.023044169 0.012750849 -0.051492006 0.009816498
0001e0 98 0c ad 3c 8e aa e6 bd 30 b5 82 bc 94 72 f4 3d
       0.02112417 -0.112629995 -0.015955538 0.119359165
0001f0 74 0a 5f bd 4e db bf bd dc cc 3f bd da 49 f8 bd
       -0.05445333 -0.09368001 -0.04682623 -0.12123461
000200 c4 0e 61 bd 90 76 cb 3c 92 9b a0 bd 96 db ec 3d
       -0.054945722 0.024836808 -0.07842173 0.1156532
000210 28 b4 bf bc 3c 7e 88 3d d8 32 c8 3d 14 c6 c2 3d
       -0.023401335 0.06664702 0.09775323 0.09510437
000220 b4 79 5d 3d cc 7b 6d bd 9c 97 79 3d 7a 2b 97 bd
       0.054071143 -0.05797939 0.0609356 -0.07381339
000230 4c 65 dd bd d4 09 27 3d 28 ea a3 bd c0 c3 f3 3d
       -0.108103365 0.040780857 -0.08003646 0.11902571
000240 80 f4 ae 3d 0c 8b 7e 3d b4 0d e2 bd 3e e7 b4 bd
       0.085427284 0.062144324 -0.1103777 -0.088331684
000250 ee 5d c1 bd d0 ba ab 3d e8 5d 36 3d 1e 3a d0 3d
       -0.09441744 0.08385241 0.04452315 0.10167335
000260 e2 0a fe bd 1c b6 8e bd 40 18 c2 bb 80 10 c0 3d
       -0.124044195 -0.06968328 -0.005923301 0.09378147
000270 46 17 92 bd 20 23 be 3c a4 27 50 3d 78 f6 0a bd
       -0.07133345 0.023210108 0.050819054 -0.033926457
000280 1c f0 28 3d 92 9b 9c 3d b4 55 51 bd e4 7c 92 bd
       0.04124461 0.0764686 -0.051107123 -0.07152727
000290 b8 54 83 bd d6 79 a6 bd 6a a8 d2 bd 40 0d 09 3b
       -0.06412643 -0.08128707 -0.10286029 0.0020912439
0002a0 9a d9 8e 3d 60 fb a3 3d 3e e5 9b 3d 98 59 8e 3c
       0.06975098 0.0800693 0.07612084 0.017376706
0002b0 c8 85 ff 3c e8 e0 df 3d 00 a4 22 3c e6 a8 ac bd
       0.031191722 0.10931569 0.009926796 -0.08430652
0002c0 00 f1 df 3d c0 4b e3 bc 80 7a cc 3d 64 f8 c3 3d
       0.10934639 -0.027746081 0.099843025 0.09568861
0002d0 a0 f4 79 bd 3c 13 dd 3d 60 ba 33 bc 10 7d fd 3c
       -0.06102431 0.10794684 -0.010969728 0.030943424
0002e0 32 9e d5 3d 3a fb 88 3d a0 e0 2b bd aa 30 f1 3d
       0.10430564 0.06688543 -0.041962266 0.1177686
0002f0 2c 9d 43 3d ca b0 b7 bd 18 fc f5 bc d0 0a 20 bd
       0.047757313 -0.08969267 -0.030027434 -0.03907281
000300 7c 09 2a bd 14 67 6a 3d e2 eb e3 3d 90 d4 6c 3d
       -0.04151295 0.05722721 0.111289755 0.057819903
000310 9c 43 68 bd aa 61 df bd 16 8c ff 3d 50 e4 ce 3d
       -0.056705102 -0.109073 0.12477891 0.10102141
000320 98 58 26 3d 50 19 d1 3c 3c 99 13 3d 30 33 15 3d
       0.040611833 0.025524765 0.036034808 0.03642577
000330 c0 92 f4 bd f2 91 e5 3d 0a f6 a9 3d b0 9a 16 bd
       -0.11942053 0.112094775 0.08298881 -0.036768615
000340 98 60 40 bd 78 64 e4 bd e2 f4 fa 3d 0c 28 dc bd
       -0.04696712 -0.111519754 0.12253739 -0.10749826
000350 34 f9 5c 3d 80 2f 2c bb 34 6b ef 3d c0 dd 62 3b
       0.053948596 -0.002627343 0.11690369 0.0034617037
000360 e8 91 c3 3d 2a 93 b6 3d c8 d0 e1 3c 2a fb c9 bd
       0.09549314 0.08914788 0.027565375 -0.09862359
000370 be a8 df 3d dc 1e 6f bd 5a fe 98 bd 68 6b b9 bd
       0.10920857 -0.05837904 -0.07470389 -0.09053689
000380 b0 2a 29 bc f0 1d e1 bc d4 d8 27 bd 72 2c f6 bd
       -0.010325119 -0.027480096 -0.040978268 -0.12020196
000390 00 5a 40 ba 26 dc af 3d 98 10 b1 3d 7c 18 82 bd
       -0.000733763 0.08586912 0.08645743 -0.06352326
0003a0 e0 11 d3 bb 92 72 f6 3d 02 cd e3 3d c4 8b 2c 3d
       -0.00644134 0.12033571 0.111230865 0.04212548
0003b0 1c 97 10 3d 86 39 a5 bd d8 53 e5 3c f0 41 85 bd
       0.03530036 -0.08067612 0.027994081 -0.06506717
0003c0 68 c3 81 3d 80 45 cf 3b 48 09 27 3d f0 44 33 3c
       0.06336099 0.0063254237 0.040780336 0.010941729
0003d0 40 30 d1 3c 38 89 b3 3c f4 05 d3 bd f4 8f 4b bd
       0.025535703 0.021916017 -0.1030387 -0.04969783
0003e0 6c d1 c4 3d be f3 81 3d 88 c2 f4 bc 50 13 58 bc
       0.096102566 0.06345318 -0.029877916 -0.013188198
0003f0 a0 45 34 3c a0 0a 6a bc 50 b0 8f 3c f8 90 46 bd
       0.011002928 -0.01428476 0.017540127 -0.048478097

lstm.bias_ih_l1 f4 [256]
000000 93 ef 08 bd 4c 40 f7 bd da 11 12 ba b8 dc 9f bc
       -0.0334316 -0.120728105 -0.0005572118 -0.019514427
000010 1f 8e 92 3e 05 2a 2a bd 89 12 1f be a0 7b 67 3d
       0.28624055 -0.04154398 -0.15534414 0.056514382
000020 ba 6e 3c bb 9d 0b ba 3b a0 cc 02 be 18 97 13 be
       -0.0028752522 0.005677654 -0.1277337 -0.14413106
000030 ce e6 14 be 96 4c f3 bd 50 44 55 be 29 ec c1 3b
       -0.1454117 -0.11879842 -0.2082684 0.005918045
000040 91 ca da 3a f3 84 af bc 04 05 0d 3d ce 65 ed bd
       0.001669245 -0.0214257 0.03442861 -0.11591683
000050 f6 78 0f be 74 70 17 be e9 1d 76 3d c3 15 81 bd
       -0.14010987 -0.14788991 0.06008712 -0.06302979
000060 11 c4 34 3d 45 65 a1 bc 22 f9 23 3c c2 9e 58 bc
       0.044132296 -0.01970161 0.010008128 -0.013221445
000070 55 06 59 be 3d ff f6 bd 90 35 9a 3a e1 c0 a8 bd
       -0.21193822 -0.120604016 0.001176523 -0.08239914
000080 9c 01 e4 bd 3d f0 ea 3b 07 42 12 3c 01 d9 4d bd
       -0.111331195 0.007169752 0.008926875 -0.05025578
000090 fa a4 35 bd 6f a0 f7 bc 54 07 1f bd 8f 7e 17 bd
       -0.044346787 -0.030227868 -0.038825348 -0.03698593
0000a0 f3 3e 8f 3d e7 02 02 be 83 a0 30 3c 99 c4 a6 bd
       0.069944285 -0.1269642 0.0107804565 -0.08142967
0000b0 28 7b 10 3c 4c 13 50 bc 58 4f 19 be fc 8e 59 be
       0.008818425 -0.012699913 -0.14971673 -0.2124595
0000c0 3a 97 50 3d ca e4 bf 3c 42 16 98 3d 75 67 8d ba
       0.05092547 0.023424525 0.0742612 -0.0010788279
0000d0 60 aa 83 3e 22 65 24 be 2f a7 6a 3d c4 e0 6c 3e
       0.25715923 -0.16054204 0.057288345 0.23132616
0000e0 21 41 b4 bd d4 f8 80 3c ef 1e 8f bd 21 ef b9 bd
       -0.08801485 0.01574365 -0.06988322 -0.09078813
0000f0 f9 03 23 be 09 b3 8b 3c 3a d9 ef bd 0b 92 cb bd
       -0.15919484 0.017053144 -0.117113546 -0.09939965
000100 0a c5 d0 3d 24 32 f2 3d 00 95 31 3b 9c 7c d3 3d
       0.10193832 0.1182597 0.0027096868 0.10326502
000110 d8 24 8c 3d 52 d8 ba 3d 94 71 2c bd 20 ff bb bb
       0.06842965 0.09123291 -0.042100504 -0.0057372004
000120 d8 3a 3c 3d 0c 47 e6 bd ea 48 84 3d 60 13 5d 3d
       0.045954555 -0.1124402 0.0645922 0.053973556
000130 08 7c d2 bc 54 44 89 bd 98 8c 53 bd e8 75 85 3d
       -0.025693908 -0.06702486 -0.051647753 0.065166295
000140 34 c4 9a bd fc a7 ac bd d8 35 43 bd 50 d5 98 bd
       -0.07556954 -0.08430478 -0.04765877 -0.07462561
000150 c8 c4 7c bd 8c 7a 76 bd 44 c5 61 bd 6e cc aa bd
       -0.061711103 -0.060175464 -0.055119768 -0.08339773
000160 02 86 90 3d 10 ba 38 3c 60 a4 8c bb dc f0 93 3d
       0.0705681 0.0112748295 -0.004292056 0.07223675
000170 a0 ed 48 bc 4c e2 f9 bd 60 30 e0 bb 50 3b 96 3d
       -0.012263685 -0.12201366 -0.0068417042 0.07335532
000180 f8 fe fd 3c f0 6e 29 3c 44 42 b1 bd 56 bd 90 3d
       0.031005368 0.010341391 -0.08655217 0.07067363
000190 ba 00 c2 bd 04 79 09 3d 98 c2 e9 3d ec 12 79 3d
       -0.09472795 0.033562675 0.11414069 0.06080906
0001a0 aa ee 8c 3d e0 fd b9 bb 00 40 04 39 b8 cf a8 3d
       0.06881459 -0.005676016 0.00012612343 0.08242744
0001b0 94 a4 14 bd ae c6 b2 bd 86 69 a1 3d ea 01 c0 3d
       -0.036289766 -0.087293014 0.07881455 0.09375365
0001c0 1a c1 a8 bd 1a ff 86 bd 50 3a 1b bc 1e f2 df bd
       -0.08239956 -0.065916255 -0.009474352 -0.10934852
0001d0 d8 1e 6e bd 90 84 a5 3c b0 94 59 bc a4 3f 1d bd
       -0.058134884 0.020204812 -0.013280079 -0.03839077
0001e0 86 c3 db bd 62 70 95 bd 70 9f d2 3c a0 43 a6 3d
       -0.107306525 -0.07296826 0.025710791 0.08118367
0001f0 28 e3 d9 bc 12 4d c3 3d ba 05 aa bd 58 d4 82 bd
       -0.026597574 0.09536184 -0.083018735 -0.063881576
000200 c0 1e 80 bd 91 76 4c bd 3f c5 b6 3d bc 69 d1 3d
       -0.06255865 -0.04991776 0.089243405 0.10225245
000210 db 5d 3a bc 29 cc 32 bd 66 e4 c2 3d c2 39 72 bd
       -0.011374916 -0.043651734 0.0951622 -0.059137113
000220 05 53 a7 bd 3d ed a2 bd 29 fa 46 ba d1 9e 98 3a
       -0.081701316 -0.07955406 -0.00075903774 0.0011644011
000230 d5 35 cf 3d d0 60 4d bd e9 db 65 3d 3e f2 91 bd
       0.101176895 -0.050141156 0.056117926 -0.07126282
000240 41 43 7d 3d 84 a0 c0 3b 59 fc c7 3d 9f 4c e0 bd
       0.061831716 0.00587851 0.09764928 -0.10952114
000250 6c 38 20 3d 9c d6 e2 3c 77 12 a0 bd ec 2c d5 bd
       0.039116308 0.027690224 -0.07816022 -0.10408959
000260 e2 0b 1e bd 68 62 ca 3d c9 67 0a ba fa ac 8d bd
       -0.03858555 0.09882051 -0.00052797474 -0.06917758
000270 4f da 09 3e f7 4f 14 bd d7 a9 f3 bd f2 62 cd bd
       0.13462184 -0.036209073 -0.11897629 -0.10028638
000280 ac 62 a9 bc db 62 bd 3d 30 db 01 bd 74 68 66 bc
       -0.020676933 0.09247371 -0.031703174 -0.0140629895
000290 82 4d ae 3c de 4b 88 bd 75 74 41 3d b2 98 e3 3d
       0.021277193 -0.066550955 0.047230203 0.11113109
0002a0 0f 07 58 3d 62 8e e6 bd 3d 17 cc bd bd 70 eb bc
       0.052741107 -0.11257626 -0.0996537 -0.028740281
0002b0 e7 40 30 3c 5e ae b6 bd b8 27 33 bc e3 f6 49 bd
       0.010757661 -0.08919977 -0.010934763 -0.049307715
0002c0 9e 2e 82 3d c2 79 60 bd a1 d1 c9 bd ba af dc bc
       0.06356548 -0.054803617 -0.09854437 -0.026939262
0002d0 a5 25 67 be 1b b1 96 3d 34 1a ae bd 17 08 88 be
       -0.22572954 0.07357999 -0.085010916 -0.26568672
0002e0 07 cb a8 bb c9 63 c5 bd 54 e9 09 3c 37 00 e7 3d
       -0.005151156 -0.09638173 0.008417446 0.11279338
0002f0 94 c7 6b bd 5e 4e b1 bd 7a 50 e3 bc 55 5a 55 bd
       -0.05756338 -0.086575255 -0.027748335 -0.0520881
000300 a7 a0 50 bd cf 89 26 be 83 61 0a be 0b f6 b7 bd
       -0.05093446 -0.16263507 -0.1351376 -0.08982476
000310 8d 71 ee 3d e7 c9 23 bd 88 6a 1d be 7f 8d ac bd
       0.11642752 -0.03998747 -0.1537267 -0.08425426
000320 66 7f a8 bd a6 f6 05 be bf 0f c6 bd fa bc fb bc
       -0.08227424 -0.1308237 -0.09670972 -0.03072976
000330 8d 61 c4 bd 0f 93 ac bd 74 a1 ab bd 89 3c 17 be
       -0.09588919 -0.08426487 -0.08380404 -0.14769186
000340 4f 8a 52 bd de d0 dc bd 09 4b 33 be 26 d4 ed bc
       -0.051401433 -0.10782026 -0.17509092 -0.029031824
000350 0c a8 bc 3d ce 1b f6 bd c5 2e 92 bd df 83 0d be
       0.0921174 -0.12017022 -0.07137827 -0.13819836
000360 e3 35 84 3c 93 33 2f be d6 69 d6 bd 9a 22 c1 bc
       0.016138976 -0.17109518 -0.10469405 -0.02357607
000370 60 4d 3e bd 85 14 1d be 4c 2c 13 be 11 57 ea bd
       -0.04646051 -0.15339859 -0.14372367 -0.11442388
000380 f4 ee 3a 3c bd 60 c4 bd f9 2f 4d bc 29 4d 2e be
       0.01140951 -0.09588764 -0.012523645 -0.17021622
000390 e9 22 17 be 2e c9 25 be 5e d8 11 bd c5 c1 1d be
       -0.14759411 -0.16190025 -0.035606734 -0.15405948
0003a0 73 fb 17 be f0 73 9e bd e9 81 1c be 0c 8d bf 3c
       -0.14842014 -0.07736957 -0.15283932 0.023382686
0003b0 b3 22 65 3d ed dc 31 3d e9 4a b2 bd fa 90 23 be
       0.055941295 0.043423582 -0.08705694 -0.15973273
0003c0 cb 81 f6 bd ba db ab 3c 21 9c a6 bb 97 74 1d 3d
       -0.12036475 0.020978797 -0.00508453 0.038441267
0003d0 ff 31 0b 3e d2 ac 13 bc 56 35 2a be 31 9f 43 3e
       0.13593291 -0.009013372 -0.16621909 0.19103695
0003e0 63 7a 42 bd ee 3d 1c bc 65 d6 c0 bb a8 bf 07 be
       -0.04748 -0.00953625 -0.005884933 -0.13256705
0003f0 b9 55 18 bd 4b a2 6a 3c 7f 7b 5f 3c 77 1f 5e 3d
       -0.037191126 0.01432092 0.013640284 0.054229226
